model (1).pth (torch, 353981 bytes, 6 tensors)

convs.0.weight f4 [16, 16, 3, 3]
00000000: 2ba4 1fbb 408f bcbc 0b92 b53c 30f9 993d
00000010: 2bbd 5b3b 30c7 ab3c ce8c 87bd 7433 aabd
00000020: e6c5 a1bd e6da 21bd 3364 83be 629e e9bd
00000030: 859c debc b63b 0ebd b393 f9bc 3cc8 4cbc
00000040: 49c1 bbbd 0fda be3d f8ea 3abe cfa6 e1bd
00000050: ac89 6dbd 730b 34bd 48de ad3d 4a1a 73bd
00000060: c921 cf3d dc11 2bbd c57b 8ebd 19c2 e5bc
00000070: d6c6 b33d ea1c 083e f22c 10be 3d5d a03d
00000080: eca2 fb3c 501f 34bd d4a9 d4bb 7bf2 983d
00000090: 4375 273d c632 883c b067 c33c a00f 7f3c
000000a0: 661b 0abd 3e06 283d 9a66 00be 7c19 19bd
000000b0: 2e82 32bc 280d ea3d c310 df3d fd06 603e
000000c0: 5b03 813d 8101 9b3d 2598 5abc f24e cd3d
000000d0: 2b9b a8bd 3b12 6bbd 3e0d dd3b 09cf babd
000000e0: c0b7 9fbd 49f3 7ebd a944 87bd b4ad 2cbd
000000f0: ad29 9bbc 0fdc d1bd 57bd 153d 2782 183c
00000100: a442 7c3d 7038 f13d 7df8 2dbe 4d0c 993d
00000110: 9fd1 983c 1ba6 68bd 92f7 16be 3dc9 d03c
00000120: 205d d13c 004e b6bc 0a20 a93d a0d9 153d
00000130: 78cf 48bd ae8d 79bd 4e22 17be 146b 88be
00000140: fe4c 13be 71d6 cabe 1674 043e 2e3e dabd
00000150: 86ba 933e b682 bc3e 88f2 e83d 8764 e1bc
00000160: f538 b7bd 682b b83e b2c7 cd3d 5292 4e3e
00000170: b0b3 803e 62a8 a13d b9fe 8d3d 1f7b 063c
00000180: 6027 2e3e 2a0a 22bd ff9b 9abd 95f8 0ebc
00000190: 927b cc3c 4745 09bd d8ca e7bd 4b66 9dbc
000001a0: f2b5 f2bc edce 1f3d fc66 64bd a421 fc3d
000001b0: 362b 98bd 33ee 4cbd 809f 5e3d 7345 69bd
000001c0: f37f 603d c87f 78bd edd1 5abf e602 e6be
000001d0: ac63 993e b773 bfbe 496f 333f 39ce 2bbf
000001e0: 0e4c 5e3f 1009 b3be b14a 913f 80a0 e93d
000001f0: fbfa 1d3f 27cb 023f 7bb5 8ebe 84aa a63d
00000200: 8dba 56be f4d4 c33e a247 893e bee0 3e3e
00000210: 79d5 5d3d 6a96 a2bc f9b6 a43e 0ad7 52bc
00000220: 96c2 bc3c a43b 8cbd 2661 ecbd 2678 203d
00000230: 0ef8 83bc 63de 10be c6aa 69be fc90 bd3d
00000240: bb27 a43d 9603 2ebc b046 84bd 4063 6cbd
00000250: 0e87 1bbd 96be a4bb 6e9b 9bbb 4804 353d
00000260: b679 42bd ed53 9bbe 87fd 8b3c 13f5 dc3d
00000270: 5f0d d13e 6d3f c1bd 67a6 9e3d 8d66 753e
00000280: a65c 0f3e e622 093f 9e39 6ebe bcba 773e
00000290: 617f 0cbc cc90 d23c f579 1fbe 3728 cc3d
000002a0: cef6 4bbd 1647 603e 25ae 013d c816 a1bd
000002b0: 95e0 b93d 9f6b 04bd 22b2 e53d 26d6 513d
000002c0: 1698 cb3b fd3d c7bc 1b8e 843d 949c a0bd
000002d0: ae32 3e3d e09e 5b3c 0e63 403d 4b94 d03c
000002e0: 8856 6ebd 00fa 873b b7b1 033e 8632 463b
000002f0: 1219 f23d ec30 97be 4492 003e e80c b43d
00000300: ff42 d83e 432d 583e 72d6 4fbc 7b01 283e
00000310: a0c7 dd3d e113 a73e 297b 86be 152d 1d3d
00000320: 99ae ba3c 3df6 db3e d184 c3bd a13c f53b
00000330: 2d7d 4f3e 0a2b 393e 9e1b f43e b2f5 a1bd
00000340: 16e4 ba3d 831b 613d ec31 053e 145a be3d
00000350: e5c3 8c3b dd24 3cbd 6f0c 123d 4b87 01be
00000360: 966c 0e3d 4bd3 8e3c 9632 d9bb d858 78bd
00000370: 176d aa3d 6f86 853d c9a9 183e a238 863e
00000380: a236 db3c 1a85 f63d 11ae 8d3e 2a5d 03bf
00000390: 816d ab3d d64c 783e 67dc d6bc 81f1 fb3d
000003a0: 12f2 8cbe dc3a 353e d3cc 5dbe fa56 4f3d
000003b0: 2272 b63d c42f b13e c8c7 c13d c43a 8f3d
000003c0: 29ac 7b3e ea18 fc3d 2cc9 c03e 6e91 c6bd
000003d0: 00b1 a53d a488 9b3d c618 bc3d b5be e3bc
000003e0: 6fe0 3b3c 3dec a8bd 574a fe3d 463e 2a3c
000003f0: 266d 8f3c 5025 8abc 70d8 bdbc c086 473d
-0.0024359326 -0.023017526 0.022164365 0.07518232 0.00335295 0.020969003 -0.06618653 -0.08310595
-0.07899074 -0.0395154 -0.25662383 -0.11407162 -0.027174244 -0.034724914 -0.030465936 -0.0124989115
-0.091677256 0.09318935 -0.18253696 -0.11018144 -0.057992622 -0.04395623 0.084896624 -0.059351243
0.10113866 -0.04176508 -0.06957201 -0.028046655 0.08778159 0.1329228 -0.14079645 0.07830284
0.030717336 -0.043975174 -0.0064899717 0.074681245 0.040883314 0.016625773 0.023853153 0.01556769
-0.033717535 0.041021578 -0.1253914 -0.03737782 -0.010895295 0.114282906 0.10891869 0.21877666
0.06299468 0.07568646 -0.013341938 0.10024823 -0.08232721 -0.057390433 0.0067459634 -0.0912152
-0.077987194 -0.062243734 -0.06604893 -0.042157844 -0.018940771 -0.10247051 0.03655752 0.0093083745
0.06158699 0.11778343 -0.16989322 0.07473049 0.018654643 -0.056799036 -0.14742878 0.025486583
0.0255571 -0.02225399 0.08258064 0.036584496 -0.049025983 -0.060926132 -0.1475918 -0.26644194
-0.14384839 -0.3961673 0.12934908 -0.10656391 0.28853244 0.36818475 0.11374384 -0.027513755
-0.089464106 0.35970616 0.100478545 0.20173004 0.2513709 0.078934446 0.0693335 0.008208065
0.17007208 -0.039560474 -0.07549285 -0.008726259 0.024961267 -0.033513334 -0.11317986 -0.019213816
-0.029627774 0.0390157 -0.055762276 0.12311104 -0.07430117 -0.050031852 0.05435133 -0.056950998
0.054809522 -0.060668737 -0.8547657 -0.44924086 0.29958856 -0.3739297 0.7009168 -0.67111546
0.868348 -0.34967852 1.1350919 0.11407566 0.6171109 0.51091236 -0.27872834 0.08137992
-0.20969601 0.38248408 0.26812464 0.1864042 0.05415866 -0.019847114 0.32170847 -0.012868652
0.023042005 -0.06847313 -0.11541967 0.039177082 -0.016109493 -0.14147334 -0.22819051 0.09256169
0.080153905 -0.010620972 -0.06458795 -0.05771184 -0.037970595 -0.0050276024 -0.0047487533 0.044193536
-0.047479354 -0.30337468 0.017088665 0.10788932 0.40830514 -0.09435926 0.077465825 0.23964901
0.14000186 0.53568876 -0.23264167 0.24192327 -0.008575291 0.02570381 -0.15573867 0.09968608
-0.04979592 0.21902117 0.031660218 -0.07865673 0.09076039 -0.032329198 0.11215617 0.05122962
0.0062131984 -0.02432155 0.06472417 -0.07842365 0.04643505 0.013404578 0.046969466 0.025461337
-0.05818799 0.0041496754 0.12860762 0.0030242517 0.11821188 -0.29529512 0.12555796 0.08791524
0.42238614 0.21111016 -0.012685405 0.16406815 0.10829091 0.32632354 -0.2626584 0.03837307
0.022788333 0.42961302 -0.09546817 0.007484034 0.20262595 0.18082824 0.4767732 -0.07908191
0.09125535 0.054957878 0.13007325 0.09294525 0.0042958134 -0.045933593 0.03565639 -0.12649266
0.034771524 0.017434737 -0.0066283448 -0.060631603 0.083215885 0.06519782 0.14908518 0.26215082
0.02675945 0.12037106 0.27671865 -0.5131403 0.083704956 0.2424806 -0.026228143 0.123019226
-0.27528435 0.17698234 -0.21660165 0.050620057 0.08908488 0.34606755 0.094619334 0.069936305
0.24577393 0.123094395 0.37653482 -0.09695707 0.08090401 0.075944215 0.09184413 -0.027800897
0.011467083 -0.08248184 0.12416523 0.010390824 0.0175081 -0.016863495 -0.023174495 0.048712492

convs.0.bias f4 [16]
00000000: 67ff 3c3d 2152 81bd 3bf1 fcb9 5641 8a3d
00000010: 204e dc3d ba03 e83d 38ce 843d ad95 57bd
00000020: 1f4d e2bd 573f 0e3e 0ed9 4d3d ea2f 8e3d
00000030: 55e8 893d af8d 0c3e 18b8 3a3d a341 183e
0.04614201 -0.06314493 -0.00048244916 0.06750743 0.10757089 0.11328836 0.064846456 -0.052632976
-0.11049866 0.1389135 0.050255828 0.06942733 0.06733767 0.13725923 0.04558572 0.14868788

fc_h.weight f4 [64, 1024]
00000000: 5518 c7bc 609f b4bc 4cce 61bd 5bb2 c7bd
00000010: dfeb b0bc 7ec5 d9bc 6c59 853d 6a35 a43c
00000020: 811c b83d a8ca f63d b881 8d3d 1198 9e3d
00000030: 847f d43d 0e84 623e 9295 733d b385 f5bd
00000040: dce7 0bbc 5008 d8bd 308e 253e 9f61 e03b
00000050: 49cf c63d 917b cfbc a3ab 6abe 7d68 58bd
00000060: e2f9 10bc 441a 08bd f468 8f3c f169 c03d
00000070: cf1b 0cbc be32 63bc d5d0 a83d fecb 303d
00000080: 865a c83c 0bd3 85bc ce60 1abd f9c3 4dbd
00000090: ede2 de3b 4ab5 a53d bd22 0dbe 20c6 903d
000000a0: f715 113d d252 91bc f2d5 b33c 3b98 a93d
000000b0: 7a50 da3c 9a24 08bd 2f39 823d 052a 1bbc
000000c0: e7f7 0abd 0548 10bd 1dcb 1dbd 949c 38bd
000000d0: 2d00 19bd 6908 8bbd 02f6 2ebd 5e49 cc3d
000000e0: 09f5 2b3e ccd6 9a3c 92c5 ba3d cd00 293d
000000f0: 46d5 d53d 81b8 a53d 4623 9b3d e17f d83d
00000100: 221a dc3c c52f 1e3d da0a b33c aeb7 e23d
00000110: b8bb ec3b 20a4 e63b 1b03 bd3d 62ee e1bb
00000120: 91df 9eba cf6a 353d 136f cc3d f5df 543d
00000130: 9b26 4c3b fd74 1ebd cba5 553c 13ec 55bc
00000140: 7a58 c83c 7854 863d ab76 87bb bd60 913b
00000150: d4f6 223d 909f cbbc fbf1 a13c 5fe2 ebbb
00000160: d681 30bd 74bd 0abd 8644 80bb 2cfd a93d
00000170: 5258 a33d 2ebe a03d 8a23 a93d b1e5 3dbb
00000180: 0761 d53c 5ee8 5c3b 766f cebc c178 8c3c
00000190: 563e f13d 8854 843c 4aef 11be b692 21be
000001a0: 3a27 72bd 1f04 a5bd 6e3e 36be 96c9 82bc
000001b0: 9571 3fbd 937c 64bd d164 99bd a074 01be
000001c0: 3082 413d 1693 5ebc 3904 b8bd 2b4b 3d3d
000001d0: 5d00 c73c a75d bcbd e9d1 c7bc bdc6 9dbc
000001e0: b6d9 6e3b 8655 453d eaac 1bbd 05dd a63a
000001f0: fcca 69bd aa14 063e fe43 663d d1da 513e
00000200: 30a7 8cbd 5c1f 40bd c99c a73d 607d 3f3d
00000210: f69e 7b3d a4fa 773d 25c3 6a3d 8133 61bc
00000220: 80f4 863c 6d01 773d 8782 ee3c 9e35 8d3c
00000230: d578 5a3d 259a a83d f6e7 5e3d 3b29 9c3d
00000240: 96bb 123d e6c1 bebc fa68 f93d 3089 173e
00000250: 985a 6b3d 8712 763d 6ca1 123d 1586 a73d
00000260: 0fb6 7ebb ac4f 64bc 6ca2 bb3d e453 043d
00000270: 8c86 633d 33ea e33d 7b50 a0bb 8031 00bb
00000280: b27b 193e bd24 353b 879f 34bd a6b9 903c
00000290: 7587 f93c 5948 20bd a54b 863c 43cc ef3c
000002a0: 5989 19be 8d14 d7bd 6c83 c0bd 7237 54bd
000002b0: 10fa 19bd 8c7e b0bc 66e1 8cbe c3d3 ffbd
000002c0: e973 873c f594 e8bd f259 01bd 9152 863d
000002d0: b6b3 003d 5231 29bc 9d71 c7bc 1419 1ebd
000002e0: 5a57 293d 7ee1 8e3c c272 f8bc 5d12 a4bd
000002f0: 26dc 4d3d 3a19 413e cde2 1d3e 106d 9c3e
00000300: 625e 8a3d b280 903d 66b2 eabc 9264 3d3d
00000310: a171 6d3d 534c 2c3d 9df0 c43d 2c3a 073c
00000320: be18 b1bd 67a2 d2ba f140 8c3d 5efc da3b
00000330: e762 ac3c 4485 b13d b136 c93c 4db7 5f3c
00000340: 8d0d 14bd 1731 9c3b e02e 273d 26e9 823c
00000350: 4c45 3c3d c932 823d cb8a 923c 80b0 e43c
00000360: 5d51 a3bd c768 b33d e688 b0bc fa7d 05bd
00000370: fcf2 22bd c4ca 0ebb 4228 df3d 16cd cebd
00000380: eaaa ff3d 86a7 f23d 72f1 1d3d 28d4 793d
00000390: a248 103e c1f1 2d3d 44eb c83d 8239 eb3d
000003a0: 3d85 f03d c1ef adbc d2b6 e53c b51c d93d
000003b0: 73d1 8b3d 52e1 4f3d 89b2 a93d 2e25 7c3d
000003c0: 6e51 2abd 8587 103c f7d4 cd3c de4f b53c
000003d0: 8558 05bd 089e 5dbd 2453 813c 3cbe ed3d
000003e0: a835 0abd bd01 20bd f4ec 09bd 9dcd 30bd
000003f0: 77c3 c7bd 061c cabc 814a 1dbd 1ccd eb3d
-0.024303595 -0.022048652 -0.05512838 -0.097508155 -0.021596847 -0.02658343 0.065111965 0.020045001
0.08989812 0.12050372 0.069095075 0.07743848 0.10375884 0.22120687 0.059468813 -0.11988392
-0.008539166 -0.105484605 0.16167521 0.006847575 0.09707505 -0.025327476 -0.22917037 -0.052834023
-0.008848639 -0.033228174 0.0175061 0.09395207 -0.008551552 -0.013867078 0.082429565 0.043163292
0.024457227 -0.016335985 -0.037689976 -0.050235722 0.006801954 0.08091219 -0.13782783 0.07069039
0.035421338 -0.017739687 0.021952603 0.08280989 0.026649702 -0.03323803 0.06358563 -0.009470467
-0.033927824 -0.035224933 -0.038523782 -0.0450712 -0.037353683 -0.067887135 -0.04271508 0.09974931
0.16792692 0.018901251 0.09119715 0.04126053 0.10441069 0.08091832 0.07575087 0.10571266
0.02686793 0.038619775 0.02185576 0.1107019 0.0072245263 0.007038608 0.09229108 -0.0068948725
-0.0012121071 0.044291314 0.09982123 0.051971395 0.003115094 -0.038685787 0.013040016 -0.013056773
0.024456251 0.0655908 -0.0041340194 0.004436581 0.039786175 -0.024856359 0.019768706 -0.0071986164
-0.04309257 -0.033872083 -0.0039144186 0.08300242 0.0797583 0.07848774 0.08258732 -0.0028976018
0.026047243 0.0033707838 -0.025199633 0.017147424 0.11779468 0.016153589 -0.14251438 -0.15778622
-0.05911944 -0.08057427 -0.17797253 -0.015965264 -0.04673918 -0.055782866 -0.07489932 -0.12642145
0.047243297 -0.013584873 -0.089851804 0.046214264 0.024292165 -0.0919755 -0.024392085 -0.019259805
0.0036445684 0.048177265 -0.0380067 0.0012730664 -0.057078347 0.1309382 0.056217186 0.20493628
-0.06867826 -0.046904907 0.08184201 0.046750426 0.061430894 0.060541764 0.05731501 -0.01374519
0.016474009 0.060304094 0.029114975 0.01723748 0.05333789 0.08232526 0.054420434 0.076250516
0.035823427 -0.023285817 0.12178226 0.14798427 0.057459444 0.060076263 0.035798475 0.08179871
-0.003886584 -0.013935011 0.09161839 0.032306567 0.055548236 0.11128654 -0.0048924065 -0.0019560754
0.14988592 0.0027640306 -0.04409745 0.01766665 0.030460099 -0.039131496 0.016393492 0.029272204
-0.149938 -0.105019666 -0.09400067 -0.05181069 -0.037591994 -0.021544717 -0.27515715 -0.12491562
0.016534762 -0.11356536 -0.03157992 0.06558717 0.031421386 -0.0103267 -0.024346167 -0.038598135
0.04134307 0.017441507 -0.030328158 -0.08011315 0.050258778 0.1885728 0.15418549 0.30551958
0.06756283 0.07055797 -0.02864952 0.04623849 0.057969693 0.042064976 0.09616206 0.008253615
-0.08647297 -0.0016070128 0.06848324 0.0066829165 0.021043254 0.086679965 0.024562212 0.013654542
-0.036145736 0.004766594 0.040816188 0.015980314 0.045964524 0.06357343 0.017888447 0.027916193
-0.07974503 0.08760219 -0.021549653 -0.032590844 -0.03978251 -0.0021788338 0.108963504 -0.10097711
0.12483771 0.11848359 0.03856034 0.060993344 0.14090207 0.042466883 0.09810498 0.11485578
0.11744163 -0.021232488 0.028041277 0.106011786 0.06827059 0.05075199 0.08286006 0.061558895
-0.041581564 0.008821373 0.025125964 0.02213281 -0.032555122 -0.05410579 0.015786715 0.1160855
-0.033742577 -0.039064158 -0.03367324 -0.043164838 -0.09754079 -0.024671566 -0.03840113 0.11513731

fc_h.bias f4 [64]
00000000: ebbe 493d a61c c93c f32f 33bc ca4a b838
00000010: c232 a43c 2ba3 8ebb 7205 aabc 60da 713c
00000020: 5459 933d e9f4 00bd 971c a83c bea5 f43c
00000030: d7b0 093b 3fe9 2ebc 66f7 21bd 08b1 cdbc
00000040: 617c b93c 23bd 13bd 3ad8 553d 9980 e7bb
00000050: e084 5a3c f82a 1cbd 6196 c53c 72db 76ba
00000060: 54c3 56bc d664 ebbb bf41 f7bc 204e c83c
00000070: 4367 2f3b 14db 8cbb a691 403b 8513 913c
00000080: f752 783c e3a8 b33b 58cc 533c a76a 2fbd
00000090: 92a7 19bc 362e 983c 5b0c a93c 67f9 b4bc
000000a0: 434b ddbc cc53 d03c 2d85 c13c 6192 bebc
000000b0: 44f8 bb3c 8127 99bc 6892 f33c 1b2b 01bc
000000c0: 0e19 a53c 016b c73b 45cb b13c a0d6 3fbd
000000d0: 9dae 343d ccb4 0ebb 221b 713d 66e3 b2bb
000000e0: 56db 853d 4343 e13c c57d b9bb 0c49 34bb
000000f0: 364f ab3c ef4f 8a3c 6ed1 b0bc ac7a 953b
0.04925434 0.024549793 -0.010936725 8.787734e-05 0.020043734 -0.004352947 -0.02075455 0.014761537
0.07194772 -0.031483565 0.020521445 0.029864188 0.0021009946 -0.010675727 -0.03954258 -0.02510883
0.022642316 -0.036069047 0.052208163 -0.0070648906 0.013337344 -0.038126916 0.024119558 -0.0009416855
-0.013108093 -0.0071836514 -0.030182717 0.024451315 0.002676443 -0.004298577 0.0029383688 0.017709503
0.015156499 0.0054827794 0.012927137 -0.04282632 -0.009378331 0.018576723 0.020635774 -0.02209158
-0.027013427 0.025430582 0.023623073 -0.023263158 0.02294553 -0.018695595 0.029732898 -0.007883812
0.020153549 0.006085754 0.021703372 -0.04683554 0.044111837 -0.0021775244 0.058863766 -0.005459237
0.06535976 0.027497893 -0.005660745 -0.002750936 0.020911794 0.016883818 -0.021584239 0.004561743

fc_z.weight f4 [306, 64]
00000000: 8ca9 d8bc 2b57 1c3d 122b 86bd ef16 493c
00000010: fd26 4cbe 0381 bebd 92c3 f2bc 1955 68be
00000020: f1e8 3dbd 8fef 3b3d e5b3 273c ed1c 5cbd
00000030: af33 193d 0255 24be 278e b23d bfbd cdbd
00000040: d96a 28be 3717 8b3c 744f 07be 451e 753d
00000050: 2f31 84be d622 5bb9 6720 dabd fa49 15bd
00000060: a1ad 8fbd a31b b1bd 19b8 423c 1729 4abb
00000070: f2a2 32be eef4 093c 7e0d 93be 2b86 203d
00000080: 3a82 84be ddb4 efbc b5d2 a6be 0a6a cbbd
00000090: 5aed f6bc f9f7 e53d 0eef 34be a253 b0bd
000000a0: e72a 01be f345 f3bd 1bea a5bc 368c 7a3b
000000b0: c5f5 33bd 4bf7 3dbe b129 003c 45be b0bd
000000c0: c369 13be d786 70be fb7f b7bc dcf6 93bd
000000d0: 91aa 38be 002a 94bd 37b6 31bd 5e17 bcbd
000000e0: 097d 8b3a e267 ca3d fa2e bcbd c6e6 63bd
000000f0: d751 4fbe 626f a8bd 3dfa 163d c83d aa3d
00000100: 8a00 bbbc e58b 61bd 8eda 00be bbc6 19bd
00000110: 43e1 84be acbc d0bd 69c9 543c 60a5 2bbe
00000120: c983 06be 7d81 d73c 9060 033a 96b6 29be
00000130: f6fa e1bd 08a9 1cbe 7197 a5bd d7fa de3d
00000140: 9a6a 3fbe 121d a73c 96ea 233d e106 fbbd
00000150: 23aa 42be a2d2 573d 1b80 913d 4991 49bd
00000160: f216 13bd e7a4 5abd 7753 7fbd 1e05 113d
00000170: 4e15 bfbc 926e 68bb 9734 bcbe f3bb 5e3c
00000180: 1872 76be e8ea aabc 0313 35be ea50 733d
00000190: d40f 8bbb 2591 b93d 42e0 5ebd a935 893d
000001a0: 3253 71bd ba5e 94bd 607a c8bd dacb debd
000001b0: 8b33 de3d 7f1c f43c 9044 2f3d 9fc8 953d
000001c0: 4f28 20be 2dda 67be c40b 60bd 9523 9e3d
000001d0: b9d5 f4bd d8b1 0a3d 8018 39be 3837 0cbe
000001e0: f503 18bd 5d76 a13d f503 b03c 9286 8b3b
000001f0: 3c8e 89be a942 15bd 36dc 7a3d 9f33 91bc
00000200: a771 abbc cb0d a8bc 8d51 093c fff1 59bd
00000210: c495 e3bd cdbf 9ebd b5f7 2b3d 3ee8 39be
00000220: 8e5d d3bd f704 abbd 1102 f6bd 73ec 7bbe
00000230: e814 30bd 1e87 643c 4674 49bd 783f 923d
00000240: 5f61 d8bd 6072 ecbd 998b f1bd fd46 eabd
00000250: 3b42 74be 3e22 58bd b636 d03d 58ea 8c3d
00000260: aa97 053d 6273 4abd 85d2 bb3d 27c7 3abc
00000270: 6a6d 91bc 1662 e4bd 13cf 7bbe 38cd f0bd
00000280: edb4 c0bd e84e 14be 8331 8bbe d76b a7bd
00000290: 0ee9 623d 7e10 a7b9 6a08 06be aee2 bcbc
000002a0: dcb9 c43d 4b86 eabc 7a57 673d b939 47bc
000002b0: e3b5 fe3d 7f30 b13c f60e 0dbd faa7 a7bd
000002c0: 9739 40bd 4a34 82be e328 acbb 84b7 813b
000002d0: c049 35be a81b 25bd e7f6 4abe 674e 47be
000002e0: e8f7 d1bd 6896 95bc 7f65 49bd aece f9bd
000002f0: d133 92be 183f 9ebc c89a 66bc 9ade eb3d
00000300: 81ad 1bbe 122a 283d bb68 c93d cb4a bf3d
00000310: b49d 6abe b2e0 cdbd f652 ec3d 8a62 bfbd
00000320: e933 ecbd 97d1 b33d 291a 52bd dff4 10be
00000330: 139f 83bd d31d d83c 7a1a d3bd 40ab c4bd
00000340: e381 0abe b437 01bd bd21 8ebc 16f2 d53b
00000350: e6eb 9abe d00c a83d 222b b93d 2cd2 933d
00000360: af62 2f3d 2bf3 9dba 9f36 c9bd 64f4 d83d
00000370: bace 34be 9d6f 1fbe d76c 97be 7d4c 65bd
00000380: f645 0abe c2f3 183d 7de8 8cbe d693 6c3d
00000390: 3ccf 763d e975 13bd 18af d0bb cf07 7ebd
000003a0: 7952 823d 15ba 493d 0bab 2abd 2b8a 6b3d
000003b0: 27e4 dcbd cf36 c8bd e014 cfbd f60f 0f3c
000003c0: 6c60 a4bb 193e 35be 2a9f 663c 51f6 e83d
000003d0: 947c 06be bd96 c7bc f711 26bd 67c4 7c3b
000003e0: 6aca e83c c525 99bc b8e0 f13d 0a6a 0b3d
000003f0: fb15 e5bd 8ae5 29be 861e a8bd 916d e03d
-0.026448034 0.038169067 -0.06551184 0.012273534 -0.19936748 -0.09301951 -0.02963427 -0.22688712
-0.04636473 0.045882758 0.010235761 -0.053738523 0.037402805 -0.16048053 0.0871852 -0.10045957
-0.16447009 0.016978843 -0.13213903 0.05984332 -0.25818774 -0.00020898445 -0.106507115 -0.036447503
-0.07015539 -0.086478494 0.011884713 -0.0030847245 -0.17444971 0.008420212 -0.2872123 0.039190453
-0.25880605 -0.029261047 -0.32582632 -0.09932335 -0.030142475 0.11228938 -0.17669317 -0.08609702
-0.12614022 -0.11878576 -0.020253232 0.0038230545 -0.043935556 -0.18551366 0.00782244 -0.08630041
-0.14395814 -0.23488937 -0.022399893 -0.07224819 -0.18033816 -0.07234573 -0.043386664 -0.091841444
0.0010642122 0.09883095 -0.091886476 -0.055640005 -0.20246063 -0.082243696 0.03685974 0.08312565
-0.022827405 -0.055065054 -0.12583372 -0.03754304 -0.2595311 -0.10192236 0.012987473 -0.16762304
-0.1313621 0.026306862 0.00050116424 -0.16573557 -0.11034195 -0.15298855 -0.08085526 0.10887688
-0.18693009 0.020399604 0.04001864 -0.122571714 -0.19010215 0.05269111 0.07104512 -0.04921082
-0.035910554 -0.05337992 -0.062335458 0.03540527 -0.023325589 -0.0035466296 -0.36758873 0.013594615
-0.24066961 -0.020863965 -0.17683034 0.059403338 -0.00424383 0.09060887 -0.054413088 0.06699688
-0.05891723 -0.0724463 -0.09788966 -0.10878725 0.10849675 0.029798744 0.042789996 0.07313656
-0.15640377 -0.22641821 -0.05469872 0.077216305 -0.11954827 0.03386101 -0.18075752 -0.1369294
-0.03711315 0.07883904 0.021486262 0.0042579854 -0.2686633 -0.036440525 0.061245166 -0.01772481
-0.020928217 -0.02051439 0.00838126 -0.0532093 -0.1111255 -0.07751427 0.04198428 -0.18155
-0.103205785 -0.08350556 -0.12012113 -0.24601917 -0.042988688 0.01394823 -0.049183153 0.07141012
-0.10565447 -0.11545253 -0.11794204 -0.11439321 -0.2385339 -0.05276703 0.10166685 0.06880635
0.03261534 -0.049426444 0.09171013 -0.011400021 -0.017752368 -0.11151521 -0.24590711 -0.11757892
-0.09409509 -0.14483225 -0.27186212 -0.08174866 0.05539804 -0.0003186501 -0.13089147 -0.023057308
0.09605762 -0.028628489 0.05647991 -0.012159758 0.12437036 0.02162957 -0.034438096 -0.08186336
-0.046929922 -0.25430518 -0.0052538975 0.0039586443 -0.17703915 -0.04030958 -0.19820748 -0.19463502
-0.102523625 -0.018260196 -0.04916906 -0.12197624 -0.28555158 -0.019317195 -0.014074989 0.11517067
-0.15202905 0.041055746 0.09834429 0.093404375 -0.22911721 -0.10052623 0.11539261 -0.09344967
-0.115333386 0.087802105 -0.05129448 -0.14155911 -0.064268254 0.026381409 -0.103077844 -0.09602976
-0.1352611 -0.031547263 -0.017350072 0.006529103 -0.302581 0.08205569 0.0904143 0.072178215
0.04281872 -0.0012050619 -0.09824871 0.10593489 -0.17656985 -0.15569921 -0.29575226 -0.055981148
-0.1350325 0.03734184 -0.27521124 0.057758175 0.060256228 -0.03600112 -0.006368529 -0.062019166
0.06363387 0.049249727 -0.041667026 0.057504814 -0.10785704 -0.09776079 -0.101114035 0.008731833
-0.005016377 -0.1769947 0.014076034 0.11375106 -0.1313346 -0.02436387 -0.040544476 0.0038569213
0.028416831 -0.018694768 0.1181044 0.034036674 -0.11185833 -0.16591468 -0.08208947 0.10958398

fc_z.bias f4 [306]
00000000: 6266 e4bd 7e4d 14be d66b 303d 5044 fdbc
00000010: 1ecf 0fbe 1e93 85bd e0d5 39be 5f81 f1bd
00000020: a68d efbd 2fbb 4bbb 67ca e1bd d5e9 81bd
00000030: 72a7 6a3c 385e 94bc 63c7 7abd eeb9 d13c
00000040: dcc7 99bc f676 34bc 5a70 04be 938b 21be
00000050: 3b9e e9bb 85b1 8b3c 8ac4 643d 3574 5e3a
00000060: 902d e9bd d993 c6bd 02d4 99bd 872d 4ebd
00000070: cc76 e5bc bd17 d6bc 826b f33d 4f26 57bd
00000080: b230 1e3b 31c4 f3bc f69d ae3d 857d 9c3b
00000090: eaf4 d73d 4acb 213d a5d0 cf3d 921d aa3d
000000a0: 3058 e93d 31ad 9d3d 2726 e53b 8009 653c
000000b0: 8318 24bd 1b76 b63c fddf 2dbd bf1a 94bd
000000c0: 935c 703d c08f ea3c 7dea babd 66ca b1bd
000000d0: e91b 21be 7388 e93c d786 91bd 69d6 ebbd
000000e0: 5083 17be 37a6 823b 3911 a7bd 85d6 f9bd
000000f0: 3903 07be ec8f bc3c 20b9 1ebe 17f9 c8bd
00000100: f0f8 debb 4f7f 37be 9b98 c5bd 853b 133d
00000110: 8670 77bd 2f17 bfbd 17af 3f3b 529e 703d
00000120: a456 b8bd 9323 18be e193 c73c c4d4 0cbe
00000130: 06c7 373d 6a1f 87bd e7ac f7bc 622e a53d
00000140: 7ee1 0ebd 91e7 1abb fd23 a33c d30b 77bd
00000150: 0494 96bc c122 9b3d 2574 95bc b8ae 6bbd
00000160: f3ff 6dbd 7c56 8dbd c5e4 e93d d31b b63d
00000170: 2ce1 023e a848 023e 0f0e 4e3d 345d 203e
00000180: 737e f3bc 211b 9c3c c305 0e3d 0445 f33c
00000190: 214a 24bb ded1 de3c 9e0a 9abd 5388 1fbd
000001a0: bcb9 4e3c 41a1 1abe 74d5 d3bd f444 35be
000001b0: 4eee 1cbb 47e8 f6bd c537 d6bd f064 d9bd
000001c0: 7ba7 bebd 96d2 52bd f3c3 8fbd 547c 823d
000001d0: bffb 8d3d 6ec2 443c df4d bfbd 1b97 e2bd
000001e0: 6414 10bc 29d6 18bd f351 803d 3c82 03be
000001f0: 68eb 853d 5408 1ebe d65a 07be d92d c23c
00000200: 02c5 e63c 34e0 d8bd c49a d6bc b63c 1ebd
00000210: 9a67 213e ea2e bf3d 9f9e 8c3c 425a e03d
00000220: e185 9ebd e2dd ca3d 4705 4dbd d618 153d
00000230: ec92 0c3d 9b07 753c e23e 3abc e5ee f63d
00000240: d8d7 2abd c11e 76bd aa57 9ebd 359d 0d3e
00000250: ff4d c93d 46ab a7bd 7724 f33c d3cc 503b
00000260: e5aa 4dbd ab63 57bd 7a31 39bc 4c46 19be
00000270: 6048 12be 8ef0 663d c0df 4a3c 0ba0 4bbd
00000280: 4579 663d 508c 70bd 64c3 fbbc 3f94 2abe
00000290: c519 8ebd a373 08be 3f2a e23c 8589 8bbd
000002a0: 7c5b 0c3c 51bc c9bc 0838 0e3c d3f8 0f3d
000002b0: e8c2 0dbe 01c2 323d 70bb b8bd b71e 24bd
000002c0: a656 99bd e9d4 15be 913e 593c a747 543c
000002d0: a533 113c 1743 063d d35f 853d 4dca 73bd
000002e0: 037e e6bc daa1 61bd b246 5e3d 186f b7bb
000002f0: 2364 083d 2e2d 933c bc4d 9ebd dcb8 44bd
00000300: 0acd 29bc 0960 0d3e 2467 edbd b968 9dbc
00000310: 2674 32bd 8b1d b73d efce aebd ef8c 583c
00000320: e035 cf3d 3b5c c43d dac8 4fbd 69e7 a1bc
00000330: d115 89bd c684 23be e9aa 0fbe 29a7 2fbc
00000340: f889 cf3c 2dd2 bdbb 70f2 1cbe 71e2 adbd
00000350: 8774 04bd afd8 a1bd 9328 1fbe 744f 8ebd
00000360: 1965 443d a9fd 543c 79dc e63c 9e84 8c3c
00000370: 00fd 93bc 5891 f7bc cdd5 ae3c a079 bdbd
00000380: 7869 08be 5e55 01be 2b9f 02be d526 763d
00000390: 0500 1abd 0ff6 63bd 3f6a fcbb 0393 89bd
000003a0: 3a58 8fbc fea9 963c 7834 b9bc a04b 953c
000003b0: f36f 07bd 5db5 683d bfa9 1ebd ec56 9f3d
000003c0: 2455 4f3d 63df ce3c cfe3 fb3d d2fd 2fbd
000003d0: d3ce bebd 90fb 25bc 4c0d 67bd d263 b2bd
000003e0: 7677 693d 91ca 443d f5c8 aabc 80ff 6d3d
000003f0: 3b4d 10bd 1695 3a3d 978c a9bc 1da8 dbbc
-0.111523405 -0.14482686 0.04307159 -0.030916363 -0.14043853 -0.06522201 -0.18147993 -0.11792254
-0.11696939 -0.0031086912 -0.11024933 -0.06343428 0.014322149 -0.018111333 -0.061225306 0.025601353
-0.018772058 -0.011014691 -0.12933484 -0.157759 -0.0071294582 0.017052421 0.055851497 0.0008485944
-0.113856435 -0.096961685 -0.075111404 -0.050336387 -0.028010748 -0.026134366 0.1188574 -0.05252677
0.0024137911 -0.029756637 0.085262224 0.0047757053 0.105447605 0.039500512 0.10147218 0.08306421
0.113937736 0.07699049 0.0069930735 0.013979316 -0.04006244 0.022273114 -0.04244994 -0.07231664
0.058682036 0.028632998 -0.09126756 -0.086811826 -0.15733303 0.028507447 -0.07105797 -0.11515505
-0.14796185 0.0039870995 -0.08157582 -0.121991195 -0.13184823 0.023017846 -0.15500307 -0.09813135
-0.006804578 -0.17919658 -0.09648248 0.035945434 -0.060410045 -0.09330594 0.0029248649 0.058744736
-0.090009004 -0.1485732 0.024362506 -0.13753039 0.044867538 -0.06597789 -0.030233813 0.080654874
-0.034883015 -0.002363656 0.019914621 -0.06031401 -0.018381126 0.07574988 -0.018243859 -0.05753967
-0.05810542 -0.06901261 0.114205875 0.08892026 0.12781209 0.12723029 0.050306376 0.15660554
-0.029723382 0.019055905 0.034673464 0.029695995 -0.0025068598 0.027199682 -0.07521556 -0.03894837
0.012617525 -0.15100576 -0.10343447 -0.17702085 -0.0023945752 -0.12056022 -0.10459856 -0.106149554
-0.09309288 -0.05147036 -0.07019796 0.0637137 0.069327824 0.012009246 -0.093410246 -0.11063977
-0.008793924 -0.037313614 0.062656306 -0.12842649 0.06539041 -0.15432864 -0.13218245 0.023703502
0.028170113 -0.10589638 -0.026196845 -0.038632117 0.15762177 0.0933512 0.01716548 0.10954715
-0.07740379 0.09905602 -0.05005386 0.03640064 0.034319803 0.014955427 -0.0113675315 0.12057284
-0.04170975 -0.060087923 -0.07731564 0.13829501 0.0982933 -0.08186965 0.029680474 0.0031860366
-0.050211806 -0.052585285 -0.0113033 -0.14968222 -0.14285421 0.056381755 0.012382448 -0.049713176
0.056267995 -0.058727562 -0.030732818 -0.16658114 -0.06938509 -0.13325362 0.027608035 -0.06813339
0.008566733 -0.02462593 0.008680351 0.035149407 -0.13843882 0.043642048 -0.09020126 -0.040068354
-0.0748723 -0.14632 0.013259546 0.012956536 0.008862411 0.032778826 0.06512418 -0.0595191
-0.028136259 -0.055085994 0.05426664 -0.00559796 0.033298623 0.01796588 -0.077296704 -0.04802786
-0.0103638265 0.13806166 -0.11591938 -0.019214975 -0.0435678 0.08941182 -0.08535563 0.013217195
0.10117698 0.09587904 -0.050728656 -0.019763665 -0.06693614 -0.15968618 -0.14030041 -0.010721006
0.025334343 -0.005792877 -0.15326858 -0.08490456 -0.03233769 -0.07902657 -0.15542822 -0.06948748
0.047947977 0.01299993 0.028181301 0.01715308 -0.018064976 -0.030220672 0.021342183 -0.09251714
-0.13321483 -0.12630221 -0.1275603 0.060095627 -0.037597675 -0.05565458 -0.007703095 -0.067174934
-0.017498124 0.018391605 -0.022608027 0.018224537 -0.033065747 0.056813587 -0.0387361 0.07780251
0.050618306 0.025253003 0.122993104 -0.04296667 -0.09316792 -0.010130778 -0.056409165 -0.087104455
0.056998692 0.048044745 -0.020847777 0.058104992 -0.035229903 0.045552336 -0.020696921 -0.026813561
